…
To enable the following instructions: AVX2 FMA, in other operations, rebuild TensorFlow with the appropriate compiler flags.
I0000 00:00:1733914501.944342  909068 gpu_device.cc:2022] Created device /job:localhost/replica:0/task:0/device:GPU:0 with 4791 MB memory:  -> device: 0, name: NVIDIA GeForce GTX 1660 Ti, pci bus id: 0000:01:00.0, compute capability: 7.5
Model: "vgg16"
┏━━━━━━━━━━━━━━━━━━━━━━━━━━━━━━━━━┳━━━━━━━━━━━━━━━━━━━━━━━━┳━━━━━━━━━━━━━━━┓
┃ Layer (type)                    ┃ Output Shape           ┃       Param # ┃
┡━━━━━━━━━━━━━━━━━━━━━━━━━━━━━━━━━╇━━━━━━━━━━━━━━━━━━━━━━━━╇━━━━━━━━━━━━━━━┩
│ input_layer (InputLayer)        │ (None, 224, 224, 3)    │             0 │
├─────────────────────────────────┼────────────────────────┼───────────────┤
│ block1_conv1 (Conv2D)           │ (None, 224, 224, 64)   │         1,792 │
├─────────────────────────────────┼────────────────────────┼───────────────┤
│ block1_conv2 (Conv2D)           │ (None, 224, 224, 64)   │        36,928 │
├─────────────────────────────────┼────────────────────────┼───────────────┤
│ block1_pool (MaxPooling2D)      │ (None, 112, 112, 64)   │             0 │
├─────────────────────────────────┼────────────────────────┼───────────────┤
│ block2_conv1 (Conv2D)           │ (None, 112, 112, 128)  │        73,856 │
├─────────────────────────────────┼────────────────────────┼───────────────┤
│ block2_conv2 (Conv2D)           │ (None, 112, 112, 128)  │       147,584 │
├─────────────────────────────────┼────────────────────────┼───────────────┤
│ block2_pool (MaxPooling2D)      │ (None, 56, 56, 128)    │             0 │
├─────────────────────────────────┼────────────────────────┼───────────────┤
│ block3_conv1 (Conv2D)           │ (None, 56, 56, 256)    │       295,168 │
├─────────────────────────────────┼────────────────────────┼───────────────┤
│ block3_conv2 (Conv2D)           │ (None, 56, 56, 256)    │       590,080 │
├─────────────────────────────────┼────────────────────────┼───────────────┤
│ block3_conv3 (Conv2D)           │ (None, 56, 56, 256)    │       590,080 │
├─────────────────────────────────┼────────────────────────┼───────────────┤
│ block3_pool (MaxPooling2D)      │ (None, 28, 28, 256)    │             0 │
├─────────────────────────────────┼────────────────────────┼───────────────┤
│ block4_conv1 (Conv2D)           │ (None, 28, 28, 512)    │     1,180,160 │
├─────────────────────────────────┼────────────────────────┼───────────────┤
│ block4_conv2 (Conv2D)           │ (None, 28, 28, 512)    │     2,359,808 │
├─────────────────────────────────┼────────────────────────┼───────────────┤
│ block4_conv3 (Conv2D)           │ (None, 28, 28, 512)    │     2,359,808 │
├─────────────────────────────────┼────────────────────────┼───────────────┤
│ block4_pool (MaxPooling2D)      │ (None, 14, 14, 512)    │             0 │
├─────────────────────────────────┼────────────────────────┼───────────────┤
│ block5_conv1 (Conv2D)           │ (None, 14, 14, 512)    │     2,359,808 │
├─────────────────────────────────┼────────────────────────┼───────────────┤
│ block5_conv2 (Conv2D)           │ (None, 14, 14, 512)    │     2,359,808 │
├─────────────────────────────────┼────────────────────────┼───────────────┤
│ block5_conv3 (Conv2D)           │ (None, 14, 14, 512)    │     2,359,808 │
├─────────────────────────────────┼────────────────────────┼───────────────┤
│ block5_pool (MaxPooling2D)      │ (None, 7, 7, 512)      │             0 │
└─────────────────────────────────┴────────────────────────┴───────────────┘
 Total params: 14,714,688 (56.13 MB)
 Trainable params: 0 (0.00 B)
 Non-trainable params: 14,714,688 (56.13 MB)
Found 3140 files belonging to 2 classes.
Found 615 files belonging to 2 classes.
Found 767 files belonging to 2 classes.
WARNING: All log messages before absl::InitializeLog() is called are written to STDERR
I0000 00:00:1733914504.676631  909323 service.cc:148] XLA service 0x7fbaf4003110 initialized for platform CUDA (this does not guarantee that XLA will be used). Devices:
…
│ (BatchNormalizatio… │ 1024)             │            │                   │
├─────────────────────┼───────────────────┼────────────┼───────────────────┤
│ conv4_block6_add    │ (None, 14, 14,    │          0 │ conv4_block5_out… │
│ (Add)               │ 1024)             │            │ conv4_block6_3_b… │
├─────────────────────┼───────────────────┼────────────┼───────────────────┤
│ conv4_block6_out    │ (None, 14, 14,    │          0 │ conv4_block6_add… │
│ (Activation)        │ 1024)             │            │                   │
├─────────────────────┼───────────────────┼────────────┼───────────────────┤
│ conv5_block1_1_conv │ (None, 7, 7, 512) │    524,800 │ conv4_block6_out… │
│ (Conv2D)            │                   │            │                   │
├─────────────────────┼───────────────────┼────────────┼───────────────────┤
│ conv5_block1_1_bn   │ (None, 7, 7, 512) │      2,048 │ conv5_block1_1_c… │
│ (BatchNormalizatio… │                   │            │                   │
├─────────────────────┼───────────────────┼────────────┼───────────────────┤
│ conv5_block1_1_relu │ (None, 7, 7, 512) │          0 │ conv5_block1_1_b… │
│ (Activation)        │                   │            │                   │
├─────────────────────┼───────────────────┼────────────┼───────────────────┤
│ conv5_block1_2_conv │ (None, 7, 7, 512) │  2,359,808 │ conv5_block1_1_r… │
│ (Conv2D)            │                   │            │                   │
├─────────────────────┼───────────────────┼────────────┼───────────────────┤
│ conv5_block1_2_bn   │ (None, 7, 7, 512) │      2,048 │ conv5_block1_2_c… │
│ (BatchNormalizatio… │                   │            │                   │
├─────────────────────┼───────────────────┼────────────┼───────────────────┤
│ conv5_block1_2_relu │ (None, 7, 7, 512) │          0 │ conv5_block1_2_b… │
│ (Activation)        │                   │            │                   │
├─────────────────────┼───────────────────┼────────────┼───────────────────┤
│ conv5_block1_0_conv │ (None, 7, 7,      │  2,099,200 │ conv4_block6_out… │
│ (Conv2D)            │ 2048)             │            │                   │
├─────────────────────┼───────────────────┼────────────┼───────────────────┤
…
│ (BatchNormalizatio… │ 2048)             │            │                   │
├─────────────────────┼───────────────────┼────────────┼───────────────────┤
│ conv5_block1_add    │ (None, 7, 7,      │          0 │ conv5_block1_0_b… │
│ (Add)               │ 2048)             │            │ conv5_block1_3_b… │
├─────────────────────┼───────────────────┼────────────┼───────────────────┤
│ conv5_block1_out    │ (None, 7, 7,      │          0 │ conv5_block1_add… │
│ (Activation)        │ 2048)             │            │                   │
├─────────────────────┼───────────────────┼────────────┼───────────────────┤
│ conv5_block2_1_conv │ (None, 7, 7, 512) │  1,049,088 │ conv5_block1_out… │
│ (Conv2D)            │                   │            │                   │
├─────────────────────┼───────────────────┼────────────┼───────────────────┤
│ conv5_block2_1_bn   │ (None, 7, 7, 512) │      2,048 │ conv5_block2_1_c… │
│ (BatchNormalizatio… │                   │            │                   │
├─────────────────────┼───────────────────┼────────────┼───────────────────┤
│ conv5_block2_1_relu │ (None, 7, 7, 512) │          0 │ conv5_block2_1_b… │
│ (Activation)        │                   │            │                   │
├─────────────────────┼───────────────────┼────────────┼───────────────────┤
│ conv5_block2_2_conv │ (None, 7, 7, 512) │  2,359,808 │ conv5_block2_1_r… │
│ (Conv2D)            │                   │            │                   │
├─────────────────────┼───────────────────┼────────────┼───────────────────┤
│ conv5_block2_2_bn   │ (None, 7, 7, 512) │      2,048 │ conv5_block2_2_c… │
│ (BatchNormalizatio… │                   │            │                   │
├─────────────────────┼───────────────────┼────────────┼───────────────────┤
│ conv5_block2_2_relu │ (None, 7, 7, 512) │          0 │ conv5_block2_2_b… │
│ (Activation)        │                   │            │                   │
├─────────────────────┼───────────────────┼────────────┼───────────────────┤
│ conv5_block2_3_conv │ (None, 7, 7,      │  1,050,624 │ conv5_block2_2_r… │
│ (Conv2D)            │ 2048)             │            │                   │
├─────────────────────┼───────────────────┼────────────┼───────────────────┤
…
